Ch10/cnn_checkpoint.pth (torch_old, 40485 bytes, 5 tensors)

conv_1.weight f4 [32, 1, 3]
0.23102434 0.33415192 -0.60405135 0.2928487 -0.33354917 0.01094299 -0.44238308 0.12516098
0.35769755 -0.45583722 0.15737593 -0.11796314 0.12428424 -0.18982035 0.057202745 -0.1945805
0.26642188 -0.15985784 -0.26953015 0.1471656 -0.2660064 -0.055361215 -0.34760055 0.38554394
-0.45574307 -0.26616445 -0.16302913 -0.3471448 0.054492116 -0.5702368 0.28615776 -0.6744034
0.33475426 -0.012119922 -0.32929584 0.29617903 -0.017154444 0.3747972 -0.33648634 -0.18208078
0.14768353 -0.16419482 -0.020426411 0.26551503 0.13660875 -0.33239928 0.08667203 -0.09912827
0.2931987 -0.3518979 -0.5715239 -0.22306535 -0.48685387 0.4291209 -0.046350986 0.00021783571
0.0001562971 0.046661507 0.48246425 -0.54289496 0.036352098 -0.39406475 0.1780271 -0.1988292
0.1474873 -0.14769116 0.4549288 -0.44981983 -0.34433055 -0.46981585 0.13545206 -0.13833818
0.5471408 -0.5503817 -0.5726599 -0.45169795 -0.38837722 0.23385006 0.1040103 0.49208975
-0.6155233 -0.3935865 0.26068273 -0.28099722 0.114084095 -0.3313226 0.18963501 -0.44858268
-0.29135966 0.1760205 -0.039940473 -0.3165389 0.27453923 0.3871409 -0.42402613 -0.30822894
00000000: a591 6c3e f615 ab3e 1ca3 1abf 44f0 953e
00000010: f5c6 aabe 3a4a 333c 0980 e2be 332a 003e
00000020: 2224 b73e 7f63 e9be 2827 213e a996 f1bd
00000030: bc88 fe3d 4460 42be 6d4d 6a3d 1c40 47be
00000040: 7368 883e c6b1 23be dbff 89be 94b2 163e
00000050: fe31 88be 71c2 62bd b3f8 b1be 0466 c53e
00000060: 2857 e9be b546 88be 1cf1 26be f7bc b1be
00000070: 2033 5f3d 0afb 11bf 4583 923e b4a5 2cbf
00000080: e964 ab3e a392 46bc 7799 a8be c7a4 973e
00000090: 7a87 8cbc 6be5 bf3e f047 acbe 6273 3abe
000000a0: 5a3a 173e b022 28be 4a55 a7bc 96f1 873e
000000b0: 2ae3 0b3e 3d30 aabe 1b81 b13d c303 cbbd
000000c0: 241e 963e f62b b4be 644f 12bf 3e6b 64be
000000d0: e944 f9be bcb5 db3e 88da 3dbd d46a 6439
000000e0: afe3 2339 2320 3f3d 8e05 f73e 2afb 0abf
000000f0: f0e5 143d dbc2 c9be bc4c 363e e299 4bbe
00000100: e906 173e 5a3c 17be 6dec e83e c94e e6be
00000110: 184c b0be b48b f0be f2b3 0a3e 86a8 0dbe
00000120: 6b11 0c3f d1e5 0cbf d799 12bf f444 e7be
00000130: 61d9 c6be 6476 6f3e 5a03 d53d 30f3 fb3e
00000140: ef92 1dbf 2b84 c9be 3578 853e dede 8fbe
00000150: eca4 e93d 1ea3 a9be ae2f 423e a1ac e5be
00000160: 182d 95be b83e 343e 9f98 23bd 6311 a2be
00000170: 6890 8c3e 5537 c63e f419 d9be 2fd0 9dbe

conv_1.bias f4 [32]
0.45487344 -0.31657037 -0.3986249 -1.0452803 -0.4203592 -0.11202892 -0.07620627 -0.36445245
0.013542712 -0.3943773 -0.57134885 -0.2276649 -1.0080823 -0.37407446 0.31746638 0.047478173
0.17791611 -0.5772081 -0.5746629 -0.40405664 0.09028089 -0.65953845 -0.38362244 -0.5321665
-0.06264457 -0.21483389 -0.2642414 -0.45258754 -0.44421473 -0.33682716 -0.18846351 -0.46103832
00000000: 2ce5 e83e 8315 a2be 9018 ccbe bfcb 85bf
00000010: 5239 d7be 6b6f e5bd 0812 9cbd 8399 babe
00000020: 40e2 5d3c d2eb c9be eb43 12bf fd20 69be
00000030: d708 81bf b086 bfbe f48a a23e 7978 423d
00000040: a42f 363e e9c3 13bf 1c1d 13bf 83e0 cebe
00000050: 30e5 b83d 83d7 28bf 296a c4be 103c 08bf
00000060: cc4b 80bd 6afd 5bbe a64a 87be 8eb9 e7be
00000070: 1d70 e3be 9c74 acbe 94fc 40be 370d ecbe

fc_1.weight f4 [50, 192]
0.028761817 -0.046072286 0.030346423 -0.009263641 -0.09286338 0.018189915 -0.051578928 -0.059369396
-0.09161515 -0.103332914 -0.01108102 -0.047493245 -0.0036561734 -0.09097845 0.021827295 -0.08472879
-0.044214632 -0.016679095 0.005504891 0.02653658 0.03399639 -0.088969566 -0.013579189 -0.06277772
-0.039659 -0.08576798 0.033984736 -0.08471992 0.0068188244 -0.0063888934 -0.008299479 -0.07076479
0.03384896 -0.01589044 -0.022465777 -0.09534897 0.030295625 -0.010826804 -0.03306227 0.06198913
0.016089946 -0.039929286 -0.068272345 -0.035173673 0.00855158 -0.050185643 -0.072915 -0.05644841
-0.053915482 0.025737733 0.055861548 -0.067942604 0.01676125 0.037281804 0.013086319 -0.025701083
0.03766793 0.037925646 0.026985876 -0.0126816 -0.050858185 -0.0240267 -0.044498444 -0.053255722
0.0143807335 0.0302719 -0.0388456 -0.047865156 -0.030686054 -0.0360458 -0.014373418 -0.011495646
-0.097286336 -0.058347583 0.029140608 -0.0036125006 -0.035324495 -0.07526309 -0.04415323 -0.0646464
-0.02352431 0.024371698 0.04601638 0.033320136 -0.09554656 -0.075153016 -0.043143038 0.03805867
-0.02131406 -0.050443403 -0.0018940656 -0.059219133 -0.07845636 0.02093141 -0.06455544 -0.046203412
-0.07179381 0.048300445 0.054677576 0.026301779 -0.05032143 -0.071226254 -0.058613967 0.053816274
0.03464865 0.060730353 0.037807047 0.018265352 -0.032416034 -0.054884795 -0.061832204 -0.067502975
0.029543154 -0.035432562 -0.014524154 -0.041533515 -0.013150852 -0.050794907 -0.07812544 -0.0078139035
-0.021448303 0.044552907 -0.023152377 -0.05294065 -0.012733381 -0.03498363 -0.02207943 -0.06870437
0.04037778 -0.050244235 0.036273308 0.032749057 0.05155974 -0.05535721 0.05190356 -0.034117907
0.026779614 0.036053415 -0.041930504 -0.032301057 -0.048364468 -0.0920086 0.0028861654 -0.103389874
0.044802375 0.0539985 0.06825048 -0.017023139 -0.0592969 -0.015502574 0.039868005 -0.07183022
-0.016381133 -0.04326197 -0.0063121542 -0.03552245 -0.029500257 -0.022910621 -0.06858228 0.059215024
0.030682154 -0.043074246 -0.008218728 -0.029453516 -0.06517294 -0.07023065 0.026822135 -0.039623994
-0.078145325 -0.03738043 -0.055783484 -0.055099204 -0.029432518 -0.04705923 -0.02484861 -0.03455484
-0.058732934 0.060514048 -0.028881017 0.019123249 -0.056741938 -0.02584231 0.035544556 0.001513908
-0.09426452 -0.0030753838 0.068505704 0.018986404 0.048383735 0.0711503 -0.011058349 0.014978953
-0.050159834 -0.014872335 0.053447023 0.036997028 -0.04566761 -0.057871066 -0.049317524 -0.07122176
-0.055688247 -0.017847154 0.048705064 0.012079775 -0.05489197 -0.057895523 0.035902187 -0.05368212
-0.008885957 0.0346198 -0.033400584 -0.007869273 -0.0062818974 -0.017073933 -0.036591895 -0.06433402
-0.05833814 -0.038643617 0.069703326 -0.034858584 -0.04846336 0.017493293 0.019890465 0.039541982
0.054856956 0.04018893 -0.07155542 0.006400548 0.04371646 -0.0066702366 -0.04252756 0.06880137
-0.026993133 -0.0410889 -0.06506413 0.0032236576 0.03198038 0.015975483 0.014271356 -0.054731898
-0.067397505 0.0012708455 0.06580596 0.041635714 -0.042019136 -0.009368122 -0.05320164 -0.03481591
0.013069645 0.039298683 0.0597824 -0.066258594 0.04825315 -0.05090007 0.027024843 0.0610725
00000000: e79d eb3c 4bb6 3cbd 1099 f83c 87c6 17bc
00000010: 282f bebd 0403 953c 6d44 53bd 532d 73bd
00000020: b9a0 bbbd 35a0 d3bd 2b8d 35bc 4788 42bd
00000030: 699c 6fbb e952 babd 28cf b23c 4a86 adbd
00000040: 671a 35bd 99a2 88bc 5f62 b43b 3e63 d93c
00000050: cc3f 0b3d ad35 b6bd 3f7b 5ebc 9b91 80bd
00000060: 7a71 22bd 1fa7 afbd 9433 0b3d a381 adbd
00000070: 7270 df3b ec59 d1bb 8afa 07bc 21ed 90bd
00000080: 35a5 0a3d ab2c 82bc 260a b8bc 5246 c3bd
00000090: 882e f83c e862 31bc 4e6c 07bd 50e8 7d3d
000000a0: 10cf 833c e48c 23bd 5fd2 8bbd 4512 10bd
000000b0: ed1b 0c3c 768f 4dbd 7654 95bd 7336 67bd
000000c0: 7bd6 5cbd f0d7 d23c 14cf 643d 7e25 8bbd
000000d0: e44e 893c ceb4 183d 0068 563c 148b d2bc
000000e0: b049 1a3d ec57 1b3d 7c11 dd3c 7cc6 4fbc
000000f0: ac50 50bd a4d3 c4bc 0044 36bd ac22 5abd
00000100: 2b9d 6b3c c7fc f73c 901c 1fbd 410e 44bd
00000110: 5261 fbbc c3a4 13bd 7c7e 6bbc 3c58 3cbc
00000120: 0f3e c7bd e0fd 6ebd 49b8 ee3c b4bf 6cbb
00000130: 6bb0 10bd 8923 9abd 04da 34bd 5565 84bd
00000140: 0eb6 c0bc 28a7 c73c ac7b 3c3d b27a 083d
00000150: eaad c3bd d3e9 99bd c1b6 30bd 68e3 1b3d
00000160: d39a aebc be9d 4ebd 4c42 f8ba c38f 72bd
00000170: baad a0bd 5978 ab3c a435 84bd ca3f 3dbd
00000180: a208 93bd b0d6 453d 98f5 5f3d d476 d73c
00000190: d81d 4ebd 12df 91bd 3315 70bd 746e 5c3d
000001a0: beeb 0d3d 64c0 783d 90db 1a3d 38a1 953c
000001b0: adc6 04bd e1ce 60bd c443 7dbd 003f 8abd
000001c0: 7c04 f23c bc21 11bd b8f6 6dbc 0c1f 2abd
000001d0: ac76 57bc 520e 50bd 3b00 a0bd e305 00bc
000001e0: 5ab4 afbc 1c7d 363d 0eaa bdbc 4cd8 58bd
000001f0: ac9f 50bc ff4a 0fbd ecdf b4bc e0b4 8cbd
00000200: 2c63 253d e6cc 4dbd 5293 143d e023 063d
00000210: 4e30 533d 3ebe 62bd d498 543d 38bf 0bbd
00000220: ec60 db3c bfac 133d 52bf 2bbd 1d4e 04bd
00000230: d219 46bd 016f bcbd d225 3d3b 12be d3bd
00000240: b282 373d 882d 5d3d e8c6 8b3d 1c74 8bbc
00000250: 4ee1 72bd 82fe 7dbc a24c 233d b91b 93bd
00000260: ba31 86bc 7733 31bd 30d6 cebb fd7f 11bd
00000270: 86aa f1bc 0eaf bbbc de74 8cbd 748b 723d
00000280: 2459 fb3c 9f6e 30bd d8a7 06bc 8048 f1bc
00000290: 6479 85bd 16d5 8fbd 18ba db3c c54c 22bd
000002a0: a80a a0bd 391c 19bd 397d 64bd b4af 61bd
000002b0: 771c f1bc 2ec1 40bd 508f cbbc 6089 0dbd
000002c0: f291 70bd 94dd 773d e297 ecbc 5ca8 9c3c
000002d0: 3c6a 68bd 41b3 d3bc 2b97 113d 536e c63a
000002e0: c20d c1bd 618c 49bb b84c 8c3d 6089 9b3c
000002f0: 062e 463d 40b7 913d 142e 35bc 486a 753c
00000300: 6674 4dbd 18ab 73bc 44eb 5a3d 328a 173d
00000310: f60d 3bbd 360a 6dbd 2c01 4abd b7dc 91bd
00000320: 5c19 64bd 3234 92bc f67e 473d 40ea 453c
00000330: 67d6 60bd db23 6dbd 2c0e 133d c8e1 5bbd
00000340: 6896 11bc 7ecd 0d3d 0dcf 08bd 20ee 00bc
00000350: 60d8 cdbb a2de 8bbc 62e1 15bd 8ec1 83bd
00000360: f9f3 6ebd c548 1ebd 9ec0 8e3d e0c7 0ebd
00000370: 8481 46bd 184e 8f3c 54f1 a23c c6f6 213d
00000380: b0b1 603d 269d 243d a68b 92bd b0bb d13b
00000390: 0810 333d 0092 dabb 6131 2ebd bce7 8c3d
000003a0: b420 ddbc d64c 28bd 5840 85bd 0044 533b
000003b0: dcfd 023d 04df 823c 68d2 693c 8e2e 60bd
000003c0: b407 8abd 8092 a63a 46c5 863d 368a 2a3d
000003d0: 421c 2cbd c07c 19bc f6e9 59bd 219b 0ebd
000003e0: 1022 563c a8f7 203d 64de 743d 96b2 87bd
000003f0: 18a5 453d 987c 50bd 3463 dd3c 2827 7a3d

fc_1.bias f4 [50]
-0.059444476 0.054841712 0.17002274 0.05984749 -0.091869764 0.100801356 -0.10183065 -0.06538646
0.086668566 -0.06087424 -0.010328116 -0.02948688 0.122900374 0.15159866 0.05207572 -0.0959095
-0.05710687 0.034953333 -0.059207287 -0.028654287 0.03951721 -0.01515176 -0.023733152 0.0486267
0.1289373 0.04220003 -0.04381453 0.025565915 0.13446575 -0.016803913 0.03151398 -0.031936124
-0.045065597 -0.02439846 -0.07480923 0.088584326 -0.066350125 0.18822426 -0.02132763 0.021513889
0.03088033 -0.01640614 -0.07162763 -0.0033475615 0.08944901 -0.06748569 0.023988875 -0.0077919303
-0.032888986 0.0907196
00000000: 0d7c 73bd b4a1 603d 711a 2e3e a422 753d
00000010: 3726 bcbd f170 ce3d 968c d0bd 56e9 85bd
00000020: 4a7f b13d 4457 79bd 4237 29bc 788e f1bc
00000030: 31b3 fb3d ae3c 1b3e 5a4d 553d 336c c4bd
00000040: e5e8 69bd 3a2b 0f3d 5783 72bd 65bc eabc
00000050: ccdc 213d 163f 78bc 076c c2bc ca2c 473d
00000060: 2408 043e f0d9 2c3d dd76 33bd 9c6f d13c
00000070: 64b1 093e 5ca8 89bc ce14 013d 74cf 02bd
00000080: b496 38bd 47df c7bc 9535 99bd b36b b53d
00000090: 93e2 87bd dcbd 403e 48b7 aebc e53d b03c
000000a0: bff8 fc3c 2b66 86bc 82b1 92bd c362 5bbb
000000b0: 0b31 b73d f035 8abd 5184 c43c 7353 ffbb
000000c0: 9ab6 06bd 33cb b93d

fc_2.weight f4 [1, 50]
0.0112576 -0.027950019 0.10279429 0.0851851 -0.027380554 0.090819664 -0.04741638 -0.039352294
0.09577844 0.011825384 -0.12777504 0.07078041 0.086855 0.0898211 0.04915589 -0.107821696
0.009189111 -0.068697885 0.1003902 -0.04902921 -0.0929075 -0.03796783 -0.018173695 0.056992233
0.083559826 0.09414965 0.014523819 0.1288357 0.10011465 0.07545492 -0.081754 0.09338499
-0.021669434 -0.11946803 -0.057598 0.09588834 0.051861912 0.100682236 0.09033925 0.026950434
0.09305382 0.084997825 0.010888113 -0.0218134 0.09112976 0.06340088 0.09208482 -0.009649738
-0.099549696 0.083847865
00000000: cc71 383c 70f7 e4bc d085 d23d 8775 ae3d
00000010: 2f4d e0bc a9ff b93d ae37 42bd df2f 21bd
00000020: 7d27 c43d 41bf 413c 76d7 02be 52f5 903d
00000030: 09e1 b13d 20f4 b73d b057 493d 9fd1 dcbd
00000040: ed8d 163c 7ab1 8cbd 6199 cd3d dad2 48bd
00000050: 4a46 bebd 2884 1bbd 00e1 94bc b070 693d
00000060: 6a21 ab3d 88d1 c03d 50f5 6d3c 81ed 033e
00000070: e908 cd3d 1c88 9a3d a46e a7bd a140 bf3d
00000080: 1984 b1bc a8ab f4bd e1eb 6bbd 1b61 c43d
00000090: 286d 543d 7d32 ce3d c903 b93d 28c7 dc3c
000000a0: 0093 be3d 5713 ae3d 0e64 323c 04b2 b2bc
000000b0: 3da2 ba3d 52d8 813d f796 bc3d ef19 1ebc
000000c0: b6e0 cbbd 6eb8 ab3d
