Ch10/mlp.checkpoint.pth (torch_old, 1546 bytes, 5 tensors)

linear1.weight f4 [8, 8]
000000 af 21 04 bd 03 29 31 3e bd 8b 45 be f6 cd 16 3e
       -0.032258686 0.17300801 -0.19291587 0.14727005
000010 79 3c f8 bd a1 89 51 3d 77 fc 46 be 30 ec e6 3e
       -0.12120909 0.051156644 -0.19432245 0.45102072
000020 3b be 54 3d ea 83 a5 be 69 e6 30 3e 7e 2d 0c be
       0.05193923 -0.32327205 0.17275394 -0.13689229
000030 97 90 17 3e a2 bf ce 3b f0 69 2d 3e 11 27 9f 3e
       0.1480125 0.0063094655 0.16934943 0.31084493
000040 02 e6 4d 3d 74 94 2d 3d 4b 9b 38 be 48 bd cd 3c
       0.05026818 0.042377904 -0.1802799 0.02511467
000050 26 e0 0d be 30 79 a1 3c c4 56 a7 bd dc f3 18 3f
       -0.13855037 0.019711107 -0.08170846 0.597471
000060 2a e4 8e be 50 e7 26 be 0c 76 cc bd 13 af 59 be
       -0.2790845 -0.16299176 -0.09983453 -0.21258192
000070 70 ae 08 3d fd c9 b2 be ef 7a a3 3e 2a c5 99 be
       0.03336948 -0.3491973 0.31929728 -0.30033237
000080 2f e6 09 3d c9 cb 45 bb 32 c1 49 be c6 3d 44 3d
       0.033666786 -0.003018128 -0.19702604 0.047910474
000090 82 82 21 bd d9 fb 68 3e e8 5c fb 3c 74 2a 80 3e
       -0.039431103 0.22752322 0.03068395 0.2503239
0000a0 d9 fb 7d bd 4b 7d d8 bd 1c 25 1e 3d df f3 e5 3d
       -0.06200776 -0.10570773 0.03860961 0.11228155
0000b0 9d 57 bf 3d 78 42 57 be 55 fc e8 3d 0d 27 a9 3e
       0.09342883 -0.2102145 0.113762535 0.33037606
0000c0 a1 1d 13 3e 52 b2 7b be d2 24 c2 be 75 7c 26 be
       0.14366771 -0.24579743 -0.37918717 -0.16258414
0000d0 bc 4e 9b be 1a 79 81 3e f8 d6 8e 3d b5 95 e9 3d
       -0.30333507 0.25287706 0.06974596 0.114055075
0000e0 ef e5 d5 3d cf ac c1 bc 40 7e 81 3e 6f 05 42 be
       0.10444247 -0.023641972 0.25291634 -0.18947385
0000f0 55 ad 26 3d 8b 21 7b be 5e 7f b5 bc 9b 5e c9 be
       0.040692646 -0.24524514 -0.02215546 -0.3932999

linear1.bias f4 [8]
000000 fc 00 8b c0 07 1c 96 c0 1e 33 88 c0 bd 94 56 be
       -4.34387 -4.6909213 -4.25624 -0.20955177
000010 2b be 95 c0 08 d9 95 c0 67 3b 8c 3e 46 3b 45 bd
       -4.679464 -4.682743 0.2738907 -0.04815223

linear2.weight f4 [4, 8]
000000 ed 59 28 ba 9e 50 9e be 47 fd de be 7b 9f 8d be
       -0.00064220914 -0.3092088 -0.4355261 -0.27660736
000010 d7 0f a5 be 27 19 82 bd a0 31 e9 3d 38 a7 80 3c
       -0.32238647 -0.06352454 0.11386418 0.015704736
000020 28 aa 74 be 58 ce 76 be c8 2c 1d bd 70 56 12 be
       -0.23893034 -0.24102151 -0.038372785 -0.14290786
000030 1a 0b b0 38 75 12 1f be 4e 1a 4f 3e dc c8 cb be
       8.394402e-05 -0.15534385 0.20224878 -0.3980168
000040 e9 9e c1 3e ec ef 79 3e 45 96 84 3e 20 9c b8 bd
       0.3781655 0.24407929 0.25895897 -0.090141535
000050 1e 2a ab 3e 5a c1 a7 3e d3 02 5c be a6 a2 82 be
       0.3343057 0.32764703 -0.21485452 -0.25514716
000060 1d 13 25 3f d2 a0 94 3e 75 f5 a7 3e 41 27 af be
       0.6448229 0.29028946 0.32804456 -0.34209636
000070 5c 29 d7 3e 0d 1f d6 3e 2f 8a 68 3d 65 c2 b9 be
       0.42023742 0.41820565 0.056772407 -0.36281124

linear2.bias f4 [4]
000000 02 9d b3 be 42 57 00 bf 97 1c a8 3f a1 21 e1 3f
       -0.35080725 -0.50133145 1.3133725 1.7588388

linear3.weight f4 [1, 4]
000000 9c 60 56 be f5 5d 17 be 9c 5c 1e 3f 4d 68 08 3f
       -0.20935291 -0.14781936 0.6186006 0.5328415
