Ch10/rnn_checkpoint.pth (torch_old, 1283 bytes, 5 tensors)

rnn.weight_ih_l0 f4 [6, 1]
0.6528928 0.7843532 -0.095641345 0.62887913 0.27165523 -0.4302664
00000000: fc23 273f 5fcb 483f 9cdf c3bd 39fe 203f
00000010: 6516 8b3e e14b dcbe

rnn.weight_hh_l0 f4 [6, 6]
-0.16292645 0.29447204 0.35988837 -0.29994082 0.35741252 0.11051312 0.37261757 0.15912423
0.1968525 0.23200044 0.3558138 0.07714636 -0.1905866 0.10406178 -0.18809494 -0.047876447
-0.16581345 0.27082008 -0.33798 -0.20392632 -0.11527902 -0.26118872 0.03853175 -0.41893566
0.41592908 -0.2830855 0.31517887 0.38074163 -0.11258611 0.28680283 -0.118257605 0.100072496
0.044629574 0.16884185 -0.17890413 -0.07509455
00000000: 31d6 26be 0ac5 963e 4a43 b83e d891 99be
00000010: c6fe b63e b454 e23d bbc7 be3e 76f1 223e
00000020: b493 493e 8691 6d3e 3a2d b63e e9fe 9d3d
00000030: 2229 43be 581e d53d f69b 40be 181a 44bd
00000040: 00cb 29be eea8 8a3e b70b adbe 10d2 50be
00000050: 6817 ecbd 87ba 85be 78d3 1d3d bc7e d6be
00000060: a8f4 d43e 95f0 90be 205f a13e 91f0 c23e
00000070: 8c93 e6bd d2d7 923e 0b31 f2bd cff2 cc3d
00000080: 80cd 363d e1e4 2c3e a532 37be 2ccb 99bd

rnn.bias_ih_l0 f4 [6]
0.10794293 0.2740035 0.23599184 -0.08533307 0.18994145 0.0976725
00000000: 2f11 dd3d 304a 8c3e d8a7 713e 1bc3 aebd
00000010: 0380 423e 8508 c83d

rnn.bias_hh_l0 f4 [6]
0.14345135 -0.33931926 -0.40412846 -0.06458932 -0.35886183 0.3596106
00000000: e9e4 123e 41bb adbe ede9 cebe 6847 84bd
00000010: bdbc b7be e11e b83e

fc.weight f4 [1, 6]
0.29332235 0.38952985 0.12911308 -0.0071018636 0.53722125 -0.31860206
00000000: 592e 963e 7570 c73e 3836 043e c0b6 e8bb
00000010: 5587 093f cf1f a3be
